…
z","photoUrl":"","userId":"15724017853417570220"}},"outputId":"75b8610b-93b8-411f-db30-f74154ec4af9"},"source":["model.summary()"],"id":"ty0CZtbz6V_w","execution_count":null,"outputs":[{"output_type":"stream","name":"stdout","text":["Model: \"model_10\"\n","__________________________________________________________________________________________________\n","Layer (type)                    Output Shape         Param #     Connected to                     \n","==================================================================================================\n","input_11 (InputLayer)           [(None, 150, 150, 3) 0                                            \n","__________________________________________________________________________________________________\n","conv1_pad (ZeroPadding2D)       (None, 156, 156, 3)  0           input_11[0][0]                   \n","__________________________________________________________________________________________________\n","conv1_conv (Conv2D)             (None, 75, 75, 64)   9472        conv1_pad[0][0]                  \n","__________________________________________________________________________________________________\n","conv1_bn (BatchNormalization)   (None, 75, 75, 64)   256         conv1_conv[0][0]                 \n","__________________________________________________________________________________________________\n","conv1_relu (Activation)         (None, 75, 75, 64)   0           conv1_bn[0][0]                   \n","__________________________________________________________________________________________________\n","pool1_pad (ZeroPadding2D)       (None, 77, 77, 64)   0           conv1_relu[0][0]                 \n","__________________________________________________________________________________________________\n","pool1_pool (MaxPooling2D)       (None, 38, 38, 64)   0           pool1_pad[0][0]                  \n","__________________________________________________________________________________________________\n","conv2_block1_1_conv (Conv2D)    (None, 38, 38, 64)   4160        pool1_pool[0][0]                 \n","__________________________________________________________________________________________________\n","conv2_block1_1_bn (BatchNormali (None, 38, 38, 64)   256         conv2_block1_1_conv[0][0]        \n","__________________________________________________________________________________________________\n","conv2_block1_1_relu (Activation (None, 38, 38, 64)   0           conv2_block1_1_bn[0][0]          \n","__________________________________________________________________________________________________\n","conv2_block1_2_conv (Conv2D)    (None, 38, 38, 64)   36928       conv2_block1_1_relu[0][0]        \n","__________________________________________________________________________________________________\n","conv2_block1_2_bn (BatchNormali (None, 38, 38, 64)   256         conv2_block1_2_conv[0][0]        \n","__________________________________________________________________________________________________\n","conv2_block1_2_relu (Activation (None, 38, 38, 64)   0           conv2_block1_2_bn[0][0]          \n","__________________________________________________________________________________________________\n","conv2_block1_0_conv (Conv2D)    (None, 38, 38, 256)  16640       pool1_pool[0][0]                 \n","__________________________________________________________________________________________________\n","conv2_block1_3_conv (Conv2D)    (None, 38, 38, 256)  16640       conv2_block1_2_relu[0][0]        \n","__________________________________________________________________________________________________\n","conv2_block1_0_bn (BatchNormali (None, 38, 38, 256)  1024        conv2_block1_0_conv[0][0]        \n","__________________________________________________________________________________________________\n","conv2_block1_3_bn (BatchNormali (None, 38, 38, 256)  1024        conv2_block1_3_conv[0][0]        \n","__________________________________________________________________________________________________\n","conv2_block1_add (Add)          (None, 38, 38, 256)  0           conv2_block1_0_bn[0][0]          \n","                                                                 conv2_block1_3_bn[0][0]          \n","__________________________________________________________________________________________________\n","conv2_block1_out (Activation)   (None, 38, 38, 256)  0           conv2_block1_add[0][0]           \n","__________________________________________________________________________________________________\n","conv2_block2_1_conv (Conv2D)    (None, 38, 38, 64)   16448       conv2_block1_out[0][0]           \n","__________________________________________________________________________________________________\n","conv2_block2_1_bn (BatchNormali (None, 38, 38, 64)   256         conv2_block2_1_conv[0][0]        \n","__________________________________________________________________________________________________\n","conv2_block2_1_relu (Activation (None, 38, 38, 64)   0           conv2_block2_1_bn[0][0]          \n","__________________________________________________________________________________________________\n","conv2_block2_2_conv (Conv2D)    (None, 38, 38, 64)   36928       conv2_block2_1_relu[0][0]        \n","__________________________________________________________________________________________________\n","conv2_block2_2_bn (BatchNormali (None, 38, 38, 64)   256         conv2_block2_2_conv[0][0]        \n","__________________________________________________________________________________________________\n","conv2_block2_2_relu (Activation (None, 38, 38, 64)   0           conv2_block2_2_bn[0][0]          \n","__________________________________________________________________________________________________\n","conv2_block2_3_conv (Conv2D)    (None, 38, 38, 256)  16640       conv2_block2_2_relu[0][0]        \n","__________________________________________________________________________________________________\n","conv2_block2_3_bn (BatchNormali (None, 38, 38, 256)  1024        conv2_block2_3_conv[0][0]        \n","__________________________________________________________________________________________________\n","conv2_block2_add (Add)          (None, 38, 38, 256)  0           conv2_block1_out[0][0]           \n","                                                                 conv2_block2_3_bn[0][0]          \n","__________________________________________________________________________________________________\n","conv2_block2_out (Activation)   (None, 38, 38, 256)  0           conv2_block2_add[0][0]           \n","__________________________________________________________________________________________________\n","conv2_block3_1_conv (Conv2D)    (None, 38, 38, 64)   16448       conv2_block2_out[0][0]           \n","__________________________________________________________________________________________________\n","conv2_block3_1_bn (BatchNormali (None, 38, 38, 64)   256         conv2_block3_1_conv[0][0]        \n","__________________________________________________________________________________________________\n","conv2_block3_1_relu (Activation (None, 38, 38, 64)   0           conv2_block3_1_bn[0][0]          \n","__________________________________________________________________________________________________\n","conv2_block3_2_conv (Conv2D)    (None, 38, 38, 64)   36928       conv2_block3_1_relu[0][0]        \n","__________________________________________________________________________________________________\n","conv2_block3_2_bn (BatchNormali (None, 38, 38, 64)   256         conv2_block3_2_conv[0][0]        \n","__________________________________________________________________________________________________\n","conv2_block3_2_relu (Activation (None, 38, 38, 64)   0           conv2_block3_2_bn[0][0]          \n","__________________________________________________________________________________________________\n","conv2_block3_3_conv (Conv2D)    (None, 38, 38, 256)  16640       conv2_block3_2_relu[0][0]        \n","__________________________________________________________________________________________________\n","conv2_block3_3_bn (BatchNormali (None, 38, 38, 256)  1024        conv2_block3_3_conv[0][0]        \n","__________________________________________________________________________________________________\n","conv2_block3_add (Add)          (None, 38, 38, 256)  0           conv2_block2_out[0][0]           \n","                                                                 conv2_block3_3_bn[0][0]          \n","__________________________________________________________________________________________________\n","conv2_block3_out (Activation)   (None, 38, 38, 256)  0           conv2_block3_add[0][0]           \n","__________________________________________________________________________________________________\n","conv3_block1_1_conv (Conv2D)    (None, 19, 19, 128)  32896       conv2_block3_out[0][0]           \n","__________________________________________________________________________________________________\n","conv3_block1_1_bn (BatchNormali (None, 19, 19, 128)  512         conv3_block1_1_conv[0][0]        \n","__________________________________________________________________________________________________\n","conv3_block1_1_relu (Activation (None, 19, 19, 128)  0           conv3_block1_1_bn[0][0]          \n","__________________________________________________________________________________________________\n","conv3_block1_2_conv (Conv2D)    (None, 19, 19, 128)  147584      conv3_block1_1_relu[0][0]        \n","__________________________________________________________________________________________________\n","conv3_block1_2_bn (BatchNormali (None, 19, 19, 128)  512         conv3_block1_2_conv[0][0]        \n","__________________________________________________________________________________________________\n","conv3_block1_2_relu (Activation (None, 19, 19, 128)  0           conv3_block1_2_bn[0][0]          \n","__________________________________________________________________________________________________\n","conv3_block1_0_conv (Conv2D)    (None, 19, 19, 512)  131584      conv2_block3_out[0][0]           \n","__________________________________________________________________________________________________\n","conv3_block1_3_conv (Conv2D)    (None, 19, 19, 512)  66048       conv3_block1_2_relu[0][0]        \n","__________________________________________________________________________________________________\n","conv3_block1_0_bn (BatchNormali (None, 19, 19, 512)  2048        conv3_block1_0_conv[0][0]        \n","__________________________________________________________________________________________________\n","conv3_block1_3_bn (BatchNormali (None, 19, 19, 512)  2048        conv3_block1_3_conv[0][0]        \n","__________________________________________________________________________________________________\n","conv3_block1_add (Add)          (None, 19, 19, 512)  0           conv3_block1_0_bn[0][0]          \n","                                                                 conv3_block1_3_bn[0][0]          \n","__________________________________________________________________________________________________\n","conv3_block1_out (Activation)   (None, 19, 19, 512)  0           conv3_block1_add[0][0]           \n","__________________________________________________________________________________________________\n","conv3_block2_1_conv (Conv2D)    (None, 19, 19, 128)  65664       conv3_block1_out[0][0]           \n","__________________________________________________________________________________________________\n","conv3_block2_1_bn (BatchNormali (None, 19, 19, 128)  512         conv3_block2_1_conv[0][0]        \n","__________________________________________________________________________________________________\n","conv3_block2_1_relu (Activation (None, 19, 19, 128)  0           conv3_block2_1_bn[0][0]          \n","__________________________________________________________________________________________________\n","conv3_block2_2_conv (Conv2D)    (None, 19, 19, 128)  147584      conv3_block2_1_relu[0][0]        \n","__________________________________________________________________________________________________\n","conv3_block2_2_bn (BatchNormali (None, 19, 19, 128)  512         conv3_block2_2_conv[0][0]        \n","__________________________________________________________________________________________________\n","conv3_block2_2_relu (Activation (None, 19, 19, 128)  0           conv3_block2_2_bn[0][0]          \n","__________________________________________________________________________________________________\n","conv3_block2_3_conv (Conv2D)    (None, 19, 19, 512)  66048       conv3_block2_2_relu[0][0]        \n","__________________________________________________________________________________________________\n","conv3_block2_3_bn (BatchNormali (None, 19, 19, 512)  2048        conv3_block2_3_conv[0][0]        \n","__________________________________________________________________________________________________\n","conv3_block2_add (Add)          (None, 19, 19, 512)  0           conv3_block1_out[0][0]           \n","                                                                 conv3_block2_3_bn[0][0]          \n","__________________________________________________________________________________________________\n","conv3_block2_out (Activation)   (None, 19, 19, 512)  0           conv3_block2_add[0][0]           \n","__________________________________________________________________________________________________\n","conv3_block3_1_conv (Conv2D)    (None, 19, 19, 128)  65664       conv3_block2_out[0][0]           \n","__________________________________________________________________________________________________\n","conv3_block3_1_bn (BatchNormali (None, 19, 19, 128)  512         conv3_block3_1_conv[0][0]        \n","__________________________________________________________________________________________________\n","conv3_block3_1_relu (Activation (None, 19, 19, 128)  0           conv3_block3_1_bn[0][0]          \n","__________________________________________________________________________________________________\n","conv3_block3_2_conv (Conv2D)    (None, 19, 19, 128)  147584      conv3_block3_1_relu[0][0]        \n","__________________________________________________________________________________________________\n","conv3_block3_2_bn (BatchNormali (None, 19, 19, 128)  512         conv3_block3_2_conv[0][0]        \n","__________________________________________________________________________________________________\n","conv3_block3_2_relu (Activation (None, 19, 19, 128)  0           conv3_block3_2_bn[0][0]          \n","__________________________________________________________________________________________________\n","conv3_block3_3_conv (Conv2D)    (None, 19, 19, 512)  66048       conv3_block3_2_relu[0][0]        \n","__________________________________________________________________________________________________\n","conv3_block3_3_bn (BatchNormali (None, 19, 19, 512)  2048        conv3_block3_3_conv[0][0]        \n","__________________________________________________________________________________________________\n","conv3_block3_add (Add)          (None, 19, 19, 512)  0           conv3_block2_out[0][0]           \n","                                                                 conv3_block3_3_bn[0][0]          \n","__________________________________________________________________________________________________\n","conv3_block3_out (Activation)   (None, 19, 19, 512)  0           conv3_block3_add[0][0]           \n","__________________________________________________________________________________________________\n","conv3_block4_1_conv (Conv2D)    (None, 19, 19, 128)  65664       conv3_block3_out[0][0]           \n","__________________________________________________________________________________________________\n","conv3_block4_1_bn (BatchNormali (None, 19, 19, 128)  512         conv3_block4_1_conv[0][0]        \n","__________________________________________________________________________________________________\n","conv3_block4_1_relu (Activation (None, 19, 19, 128)  0           conv3_block4_1_bn[0][0]          \n","__________________________________________________________________________________________________\n","conv3_block4_2_conv (Conv2D)    (None, 19, 19, 128)  147584      conv3_block4_1_relu[0][0]        \n","__________________________________________________________________________________________________\n","conv3_block4_2_bn (BatchNormali (None, 19, 19, 128)  512         conv3_block4_2_conv[0][0]        \n","__________________________________________________________________________________________________\n","conv3_block4_2_relu (Activation (None, 19, 19, 128)  0           conv3_block4_2_bn[0][0]          \n","__________________________________________________________________________________________________\n","conv3_block4_3_conv (Conv2D)    (None, 19, 19, 512)  66048       conv3_block4_2_relu[0][0]        \n","__________________________________________________________________________________________________\n","conv3_block4_3_bn (BatchNormali (None, 19, 19, 512)  2048        conv3_block4_3_conv[0][0]        \n","__________________________________________________________________________________________________\n","conv3_block4_add (Add)          (None, 19, 19, 512)  0           conv3_block3_out[0][0]           \n","                                                                 conv3_block4_3_bn[0][0]          \n","__________________________________________________________________________________________________\n","conv3_block4_out (Activation)   (None, 19, 19, 512)  0           conv3_block4_add[0][0]           \n","__________________________________________________________________________________________________\n","conv4_block1_1_conv (Conv2D)    (None, 10, 10, 256)  131328      conv3_block4_out[0][0]           \n","__________________________________________________________________________________________________\n","conv4_block1_1_bn (BatchNormali (None, 10, 10, 256)  1024        conv4_block1_1_conv[0][0]        \n","__________________________________________________________________________________________________\n","conv4_block1_1_relu (Activation (None, 10, 10, 256)  0           conv4_block1_1_bn[0][0]          \n","__________________________________________________________________________________________________\n","conv4_block1_2_conv (Conv2D)    (None, 10, 10, 256)  590080      conv4_block1_1_relu[0][0]        \n","__________________________________________________________________________________________________\n","conv4_block1_2_bn (BatchNormali (None, 10, 10, 256)  1024        conv4_block1_2_conv[0][0]        \n","__________________________________________________________________________________________________\n","conv4_block1_2_relu (Activation (None, 10, 10, 256)  0           conv4_block1_2_bn[0][0]          \n","__________________________________________________________________________________________________\n","conv4_block1_0_conv (Conv2D)    (None, 10, 10, 1024) 525312      conv3_block4_out[0][0]           \n","__________________________________________________________________________________________________\n","conv4_block1_3_conv (Conv2D)    (None, 10, 10, 1024) 263168      conv4_block1_2_relu[0][0]        \n","__________________________________________________________________________________________________\n","conv4_block1_0_bn (BatchNormali (None, 10, 10, 1024) 4096        conv4_block1_0_conv[0][0]        \n","__________________________________________________________________________________________________\n","conv4_block1_3_bn (BatchNormali (None, 10, 10, 1024) 4096        conv4_block1_3_conv[0][0]        \n","__________________________________________________________________________________________________\n","conv4_block1_add (Add)          (None, 10, 10, 1024) 0           conv4_block1_0_bn[0][0]          \n","                                                                 conv4_block1_3_bn[0][0]          \n","__________________________________________________________________________________________________\n","conv4_block1_out (Activation)   (None, 10, 10, 1024) 0           conv4_block1_add[0][0]           \n","__________________________________________________________________________________________________\n","conv4_block2_1_conv (Conv2D)    (None, 10, 10, 256)  262400      conv4_block1_out[0][0]           \n","__________________________________________________________________________________________________\n","conv4_block2_1_bn (BatchNormali (None, 10, 10, 256)  1024        conv4_block2_1_conv[0][0]        \n","__________________________________________________________________________________________________\n","conv4_block2_1_relu (Activation (None, 10, 10, 256)  0           conv4_block2_1_bn[0][0]          \n","__________________________________________________________________________________________________\n","conv4_block2_2_conv (Conv2D)    (None, 10, 10, 256)  590080      conv4_block2_1_relu[0][0]        \n","__________________________________________________________________________________________________\n","conv4_block2_2_bn (BatchNormali (None, 10, 10, 256)  1024        conv4_block2_2_conv[0][0]        \n","__________________________________________________________________________________________________\n","conv4_block2_2_relu (Activation (None, 10, 10, 256)  0           conv4_block2_2_bn[0][0]          \n","__________________________________________________________________________________________________\n","conv4_block2_3_conv (Conv2D)    (None, 10, 10, 1024) 263168      conv4_block2_2_relu[0][0]        \n","__________________________________________________________________________________________________\n","conv4_block2_3_bn (BatchNormali (None, 10, 10, 1024) 4096        conv4_block2_3_conv[0][0]        \n","__________________________________________________________________________________________________\n","conv4_block2_add (Add)          (None, 10, 10, 1024) 0           conv4_block1_out[0][0]           \n","                                                                 conv4_block2_3_bn[0][0]          \n","__________________________________________________________________________________________________\n","conv4_block2_out (Activation)   (None, 10, 10, 1024) 0           conv4_block2_add[0][0]           \n","__________________________________________________________________________________________________\n","conv4_block3_1_conv (Conv2D)    (None, 10, 10, 256)  262400      conv4_block2_out[0][0]           \n","__________________________________________________________________________________________________\n","conv4_block3_1_bn (BatchNormali (None, 10, 10, 256)  1024        conv4_block3_1_conv[0][0]        \n","__________________________________________________________________________________________________\n","conv4_block3_1_relu (Activation (None, 10, 10, 256)  0           conv4_block3_1_bn[0][0]          \n","__________________________________________________________________________________________________\n","conv4_block3_2_conv (Conv2D)    (None, 10, 10, 256)  590080      conv4_block3_1_relu[0][0]        \n","__________________________________________________________________________________________________\n","conv4_block3_2_bn (BatchNormali (None, 10, 10, 256)  1024        conv4_block3_2_conv[0][0]        \n","__________________________________________________________________________________________________\n","conv4_block3_2_relu (Activation (None, 10, 10, 256)  0           conv4_block3_2_bn[0][0]          \n","__________________________________________________________________________________________________\n","conv4_block3_3_conv (Conv2D)    (None, 10, 10, 1024) 263168      conv4_block3_2_relu[0][0]        \n","__________________________________________________________________________________________________\n","conv4_block3_3_bn (BatchNormali (None, 10, 10, 1024) 4096        conv4_block3_3_conv[0][0]        \n","__________________________________________________________________________________________________\n","conv4_block3_add (Add)          (None, 10, 10, 1024) 0           conv4_block2_out[0][0]           \n","                                                                 conv4_block3_3_bn[0][0]          \n","__________________________________________________________________________________________________\n","conv4_block3_out (Activation)   (None, 10, 10, 1024) 0           conv4_block3_add[0][0]           \n","__________________________________________________________________________________________________\n","conv4_block4_1_conv (Conv2D)    (None, 10, 10, 256)  262400      conv4_block3_out[0][0]           \n","__________________________________________________________________________________________________\n","conv4_block4_1_bn (BatchNormali (None, 10, 10, 256)  1024        conv4_block4_1_conv[0][0]        \n","__________________________________________________________________________________________________\n","conv4_block4_1_relu (Activation (None, 10, 10, 256)  0           conv4_block4_1_bn[0][0]          \n","__________________________________________________________________________________________________\n","conv4_block4_2_conv (Conv2D)    (None, 10, 10, 256)  590080      conv4_block4_1_relu[0][0]        \n","__________________________________________________________________________________________________\n","conv4_block4_2_bn (BatchNormali (None, 10, 10, 256)  1024        conv4_block4_2_conv[0][0]        \n","__________________________________________________________________________________________________\n","conv4_block4_2_relu (Activation (None, 10, 10, 256)  0           conv4_block4_2_bn[0][0]          \n","__________________________________________________________________________________________________\n","conv4_block4_3_conv (Conv2D)    (None, 10, 10, 1024) 263168      conv4_block4_2_relu[0][0]        \n","__________________________________________________________________________________________________\n","conv4_block4_3_bn (BatchNormali (None, 10, 10, 1024) 4096        conv4_block4_3_conv[0][0]        \n","__________________________________________________________________________________________________\n","conv4_block4_add (Add)          (None, 10, 10, 1024) 0           conv4_block3_out[0][0]           \n","                                                                 conv4_block4_3_bn[0][0]          \n","__________________________________________________________________________________________________\n","conv4_block4_out (Activation)   (None, 10, 10, 1024) 0           conv4_block4_add[0][0]           \n","__________________________________________________________________________________________________\n","conv4_block5_1_conv (Conv2D)    (None, 10, 10, 256)  262400      conv4_block4_out[0][0]           \n","__________________________________________________________________________________________________\n","conv4_block5_1_bn (BatchNormali (None, 10, 10, 256)  1024        conv4_block5_1_conv[0][0]        \n","__________________________________________________________________________________________________\n","conv4_block5_1_relu (Activation (None, 10, 10, 256)  0           conv4_block5_1_bn[0][0]          \n","__________________________________________________________________________________________________\n","conv4_block5_2_conv (Conv2D)    (None, 10, 10, 256)  590080      conv4_block5_1_relu[0][0]        \n","__________________________________________________________________________________________________\n","conv4_block5_2_bn (BatchNormali (None, 10, 10, 256)  1024        conv4_block5_2_conv[0][0]        \n","__________________________________________________________________________________________________\n","conv4_block5_2_relu (Activation (None, 10, 10, 256)  0           conv4_block5_2_bn[0][0]          \n","__________________________________________________________________________________________________\n","conv4_block5_3_conv (Conv2D)    (None, 10, 10, 1024) 263168      conv4_block5_2_relu[0][0]        \n","__________________________________________________________________________________________________\n","conv4_block5_3_bn (BatchNormali (None, 10, 10, 1024) 4096        conv4_block5_3_conv[0][0]        \n","__________________________________________________________________________________________________\n","conv4_block5_add (Add)          (None, 10, 10, 1024) 0           conv4_block4_out[0][0]           \n","                                                                 conv4_block5_3_bn[0][0]          \n","__________________________________________________________________________________________________\n","conv4_block5_out (Activation)   (None, 10, 10, 1024) 0           conv4_block5_add[0][0]           \n","__________________________________________________________________________________________________\n","conv4_block6_1_conv (Conv2D)    (None, 10, 10, 256)  262400      conv4_block5_out[0][0]           \n","__________________________________________________________________________________________________\n","conv4_block6_1_bn (BatchNormali (None, 10, 10, 256)  1024        conv4_block6_1_conv[0][0]        \n","__________________________________________________________________________________________________\n","conv4_block6_1_relu (Activation (None, 10, 10, 256)  0           conv4_block6_1_bn[0][0]          \n","__________________________________________________________________________________________________\n","conv4_block6_2_conv (Conv2D)    (None, 10, 10, 256)  590080      conv4_block6_1_relu[0][0]        \n","__________________________________________________________________________________________________\n","conv4_block6_2_bn (BatchNormali (None, 10, 10, 256)  1024        conv4_block6_2_conv[0][0]        \n","__________________________________________________________________________________________________\n","conv4_block6_2_relu (Activation (None, 10, 10, 256)  0           conv4_block6_2_bn[0][0]          \n","__________________________________________________________________________________________________\n","conv4_block6_3_conv (Conv2D)    (None, 10, 10, 1024) 263168      conv4_block6_2_relu[0][0]        \n","__________________________________________________________________________________________________\n","conv4_block6_3_bn (BatchNormali (None, 10, 10, 1024) 4096        conv4_block6_3_conv[0][0]        \n","__________________________________________________________________________________________________\n","conv4_block6_add (Add)          (None, 10, 10, 1024) 0           conv4_block5_out[0][0]           \n","                                                                 conv4_block6_3_bn[0][0]          \n","__________________________________________________________________________________________________\n","conv4_block6_out (Activation)   (None, 10, 10, 1024) 0           conv4_block6_add[0][0]           \n","__________________________________________________________________________________________________\n","conv5_block1_1_conv (Conv2D)    (None, 5, 5, 512)    524800      conv4_block6_out[0][0]           \n","__________________________________________________________________________________________________\n","conv5_block1_1_bn (BatchNormali (None, 5, 5, 512)    2048        conv5_block1_1_conv[0][0]        \n","__________________________________________________________________________________________________\n","conv5_block1_1_relu (Activation (None, 5, 5, 512)    0           conv5_block1_1_bn[0][0]          \n","__________________________________________________________________________________________________\n","conv5_block1_2_conv (Conv2D)    (None, 5, 5, 512)    2359808     conv5_block1_1_relu[0][0]        \n","__________________________________________________________________________________________________\n","conv5_block1_2_bn (BatchNormali (None, 5, 5, 512)    2048        conv5_block1_2_conv[0][0]        \n","__________________________________________________________________________________________________\n","conv5_block1_2_relu (Activation (None, 5, 5, 512)    0           conv5_block1_2_bn[0][0]          \n","__________________________________________________________________________________________________\n","conv5_block1_0_conv (Conv2D)    (None, 5, 5, 2048)   2099200     conv4_block6_out[0][0]           \n","__________________________________________________________________________________________________\n","conv5_block1_3_conv (Conv2D)    (None, 5, 5, 2048)   1050624     conv5_block1_2_relu[0][0]        \n","__________________________________________________________________________________________________\n","conv5_block1_0_bn (BatchNormali (None, 5, 5, 2048)   8192        conv5_block1_0_conv[0][0]        \n","__________________________________________________________________________________________________\n","conv5_block1_3_bn (BatchNormali (None, 5, 5, 2048)   8192        conv5_block1_3_conv[0][0]        \n","__________________________________________________________________________________________________\n","conv5_block1_add (Add)          (None, 5, 5, 2048)   0           conv5_block1_0_bn[0][0]          \n","                                                                 conv5_block1_3_bn[0][0]          \n","__________________________________________________________________________________________________\n","conv5_block1_out (Activation)   (None, 5, 5, 2048)   0           conv5_block1_add[0][0]           \n","__________________________________________________________________________________________________\n","conv5_block2_1_conv (Conv2D)    (None, 5, 5, 512)    1049088     conv5_block1_out[0][0]           \n","__________________________________________________________________________________________________\n","conv5_block2_1_bn (BatchNormali (None, 5, 5, 512)    2048        conv5_block2_1_conv[0][0]        \n","__________________________________________________________________________________________________\n","conv5_block2_1_relu (Activation (None, 5, 5, 512)    0           conv5_block2_1_bn[0][0]          \n","__________________________________________________________________________________________________\n","conv5_block2_2_conv (Conv2D)    (None, 5, 5, 512)    2359808     conv5_block2_1_relu[0][0]        \n","__________________________________________________________________________________________________\n","conv5_block2_2_bn (BatchNormali (None, 5, 5, 512)    2048        conv5_block2_2_conv[0][0]        \n","__________________________________________________________________________________________________\n","conv5_block2_2_relu (Activation (None, 5, 5, 512)    0           conv5_block2_2_bn[0][0]          \n","__________________________________________________________________________________________________\n","conv5_block2_3_conv (Conv2D)    (None, 5, 5, 2048)   1050624     conv5_block2_2_relu[0][0]        \n","__________________________________________________________________________________________________\n","conv5_block2_3_bn (BatchNormali (None, 5, 5, 2048)   8192        conv5_block2_3_conv[0][0]        \n","__________________________________________________________________________________________________\n","conv5_block2_add (Add)          (None, 5, 5, 2048)   0           conv5_block1_out[0][0]           \n","                                                                 conv5_block2_3_bn[0][0]          \n","__________________________________________________________________________________________________\n","conv5_block2_out (Activation)   (None, 5, 5, 2048)   0           conv5_block2_add[0][0]           \n","__________________________________________________________________________________________________\n","conv5_block3_1_conv (Conv2D)    (None, 5, 5, 512)    1049088     conv5_block2_out[0][0]           \n","__________________________________________________________________________________________________\n","conv5_block3_1_bn (BatchNormali (None, 5, 5, 512)    2048        conv5_block3_1_conv[0][0]        \n","__________________________________________________________________________________________________\n","conv5_block3_1_relu (Activation (None, 5, 5, 512)    0           conv5_block3_1_bn[0][0]          \n","__________________________________________________________________________________________________\n","conv5_block3_2_conv (Conv2D)    (None, 5, 5, 512)    2359808     conv5_block3_1_relu[0][0]        \n","__________________________________________________________________________________________________\n","conv5_block3_2_bn (BatchNormali (None, 5, 5, 512)    2048        conv5_block3_2_conv[0][0]        \n","__________________________________________________________________________________________________\n","conv5_block3_2_relu (Activation (None, 5, 5, 512)    0           conv5_block3_2_bn[0][0]          \n","__________________________________________________________________________________________________\n","conv5_block3_3_conv (Conv2D)    (None, 5, 5, 2048)   1050624     conv5_block3_2_relu[0][0]        \n","__________________________________________________________________________________________________\n","conv5_block3_3_bn (BatchNormali (None, 5, 5, 2048)   8192        conv5_block3_3_conv[0][0]        \n","__________________________________________________________________________________________________\n","conv5_block3_add (Add)          (None, 5, 5, 2048)   0           conv5_block2_out[0][0]           \n","                                                                 conv5_block3_3_bn[0][0]          \n","__________________________________________________________________________________________________\n","conv5_block3_out (Activation)   (None, 5, 5, 2048)   0           conv5_block3_add[0][0]           \n","__________________________________________________________________________________________________\n","global_average_pooling2d_10 (Gl (None, 2048)         0           conv5_block3_out[0][0]           \n","__________________________________________________________________________________________________\n","dense_10 (Dense)                (None, 2)            4098        global_average_pooling2d_10[0][0]\n","==================================================================================================\n","Total params: 23,591,810\n","Trainable params: 23,538,690\n","Non-trainable params: 53,120\n","__________________________________________________________________________________________________\n"]}]},{"cell_type":"code","metadata":{"execution":{"iopu
…
