…
snet/resnet50_weights_tf_dim_ordering_tf_kernels_notop.h5\n","94773248/94765736 [==============================] - 1s 0us/step\n","94781440/94765736 [==============================] - 1s 0us/step\n","Model: \"model\"\n","_________________________________________________________________\n","Layer (type)                 Output Shape              Param #   \n","=================================================================\n","input_2 (InputLayer)         [(None, 150, 150, 3)]     0         \n","_________________________________________________________________\n","sequential (Sequential)      (None, 150, 150, 3)       0         \n","_________________________________________________________________\n","resnet50 (Functional)        (None, 5, 5, 2048)        23587712  \n","_________________________________________________________________\n","conv6_block1_1_conv (Conv2D) (None, 3, 3, 512)         1049088   \n","_________________________________________________________________\n","conv6_block1_1_bn (BatchNorm (None, 3, 3, 512)         2048      \n","_________________________________________________________________\n","conv6_block1_1_relu (Activat (None, 3, 3, 512)         0         \n","_________________________________________________________________\n","global_average_pooling2d (Gl (None, 512)               0         \n","_________________________________________________________________\n","dense (Dense)                (None, 2)                 1026      \n","=================================================================\n","Total params: 24,639,874\n","Trainable params: 1,051,138\n","Non-trainable params: 23,588,736\n","_________________________________________________________________\n"]}]},{"cell_type":"code","metadata":{"colab":{"base_uri":"https://localhost:8080/"},"id":"dRRE6sqsOV1i","executionInfo":{"status":"ok","timestamp":163440
…
